Assignment3/ipynb/Trained_MLP_min_error/200_question_data_units_10/run_0.pt (torch, 3223 bytes, 4 tensors)

weight f4 [10, 3]
00000000: ecb3 95be f084 cf3e 32ed 493f efd4 383f
00000010: 01f4 773a 9959 3e3f 0b16 38bf 8bc4 fd3e
00000020: f304 26bf 3425 debe 37dc af3e 559b 07bd
00000030: cc77 483e 2ce8 73be 6292 33bf 8471 783e
00000040: a5ca 62be e7aa e4bd 083a bd3e 08d2 30bf
00000050: f8a7 cc3d 6c7e 1ebf 5380 5ebf 1874 f1be
00000060: cd38 90be 34f4 0dbe e0e7 fc3e f113 613f
00000070: 786b 20bd a55d babe
-0.29238832 0.4053111 0.78877556 0.7219991 0.00094586617 0.74355465 -0.71908635 0.49564013
-0.648513 -0.4338776 0.34347698 -0.03310712 0.19576949 -0.23819035 -0.7014524 0.24262053
-0.22147615 -0.111654095 0.36958337 -0.6907048 0.09992975 -0.61911654 -0.8691456 -0.47158885
-0.28168336 -0.13862687 0.49395657 0.87921053 -0.03916499 -0.3639957

bias f4 [10]
00000000: 91ad 8dbe 75b4 273e ba85 03be 767d 14bf
00000010: 4e33 35bd cb4d c63e ac3a 4e3c 6c5a f93e
00000020: a4de de3d 4992 aa3d
-0.27671483 0.16377433 -0.12843981 -0.5800394 -0.04423838 0.38731226 0.012587231 0.487018
0.10882309 0.08328683

weight f4 [4, 10]
00000000: cf27 f83c b3c7 03bf 9369 373f 190b 343e
00000010: a0d7 88be 20b3 9ebe 1b04 a9be 7f24 723b
00000020: 9274 713c 046f 01bf ddb1 ee3e afc5 433f
00000030: 94bf 15bf 3ef9 93bb c5e0 11bf de58 473e
00000040: 7dd5 9d3d 6562 c7be f5bb c43e fbf6 123e
00000050: 017c 94be 9ee5 f03c 08af f5bd 4be7 99be
00000060: df69 963e 324a b93e 4e8d 31be b258 bdbe
00000070: 53eb d8be 638d dd3e 063e 44be 163b 9cbe
00000080: 5c83 5dbe 01f8 2fbe d6e1 3fbd 470e a23e
00000090: 888d b23e b9c9 613f 467f 163d c74d cabe
0.03029242 -0.5147659 0.7164547 0.17582358 -0.2672701 -0.30996037 -0.33010945 0.0036948023
0.014737265 -0.5056002 0.46620074 0.76473516 -0.5849545 -0.004515796 -0.56983596 0.19467494
0.07706735 -0.38942257 0.3842465 0.14352028 -0.29000857 0.029406365 -0.11996275 -0.30059275
0.29377648 0.3618942 -0.1733906 -0.36981732 -0.42367038 0.43271932 -0.19164285 -0.3051383
-0.21632141 -0.1718445 -0.046846233 0.31651518 0.34873605 0.8819843 0.03674247 -0.39512464

bias f4 [4]
00000000: 15d2 5ebd 5e4a 863e bde1 ec3e 1ba4 55be
-0.05439957 0.26228613 0.46265975 -0.20863383
