Assignment3/ipynb/MLP_Training/1000_question_data/units_4/left_out_2_model.pt (torch, 3031 bytes, 4 tensors)

weight f4 [4, 3]
00000000: a26c 76bf 4cbc 443e a11a f0be 5b2f c5be
00000010: 912c 26bf c7d9 45bf 2164 ec3e 52f2 353f
00000020: 5426 15bf fca9 23bf 7ecd fd3e 6113 6f3e
-0.9625951 0.19212455 -0.46895316 -0.38512692 -0.6491175 -0.77285427 0.46170142 0.71072876
-0.5826161 -0.6393125 0.4957084 0.23347236

bias f4 [4]
00000000: 942f 2fbe ebee 6cbe 0b29 483d c373 e73e
-0.17107993 -0.23138015 0.048867267 0.45205507

weight f4 [4, 4]
00000000: d893 413f c329 853d 7618 523e f10b 543f
00000010: 81a0 0fbf d3ff 4ebf 6440 e13d 0206 e73e
00000020: 3d5d efbe 4ba6 803e a116 573f c9fb eabd
00000030: c718 123e be62 733f 1474 49bf 69fa 923e
0.75616217 0.06502106 0.20517144 0.8283072 -0.56104285 -0.80859107 0.1099861 0.4512177
-0.46750823 0.2512687 0.84018904 -0.114738055 0.14267264 0.95072544 -0.78692746 0.28706673

bias f4 [4]
00000000: e9f7 9cbe 19ac 3a3e e0ce 283e 8dde 6b3e
-0.3065789 0.18229713 0.16485167 0.23034115
