Assignment3/ipynb/MLP_Training/1000_question_data/units_6/left_out_0_model.pt (torch, 3095 bytes, 4 tensors)

weight f4 [6, 3]
0	0x3f37e8d5	0.7183965
1	0x3eba16e4	0.3634559
2	0xbe80ebb8	-0.2517984
3	0xbee326c8	-0.44365525
4	0x3ec943e0	0.39309597
5	0xbf6f498e	-0.9347161
6	0x3f7efa51	0.996007
7	0xbca05099	-0.019569682
8	0xbef32bb2	-0.47494274
9	0xbe21a901	-0.15787126
10	0xbe8881d7	-0.2666156
11	0xbf170001	-0.5898438
12	0x3e8b908e	0.27258724
13	0x3f1fa4c0	0.62360764
14	0xbf14afcf	-0.5808076
15	0xbea23665	-0.31682125
16	0xbf4338a7	-0.7625832
17	0xbf0f6cec	-0.56025577

bias f4 [6]
0	0xbdb1599c	-0.0865967
1	0xbe8e41e9	-0.2778466
2	0x3cc1807f	0.023620842
3	0x3e6b41bc	0.22974294
4	0xbdc97d19	-0.098383136
5	0x3e73294b	0.23746221

weight f4 [4, 6]
0	0xbe07a8a0	-0.13247919
1	0x3f3cb6ce	0.7371644
2	0xbf02d2f4	-0.5110314
3	0xbd7f8c6f	-0.062389787
4	0x3e807fdf	0.25097558
5	0x3e2696f1	0.16268517
6	0x3e212b65	0.1573921
7	0xbf83d04d	-1.0297943
8	0x3e0244d5	0.1272157
9	0xbf34a604	-0.7056582
10	0xbdfe05e3	-0.124034666
11	0xbef6d61d	-0.4821023
12	0x3e5f9145	0.2183276
13	0x3e2fb893	0.17160253
14	0x3f60f1fa	0.87869227
15	0x3d91e466	0.07123642
16	0x3e945c01	0.28976443
17	0x3d5fcfbd	0.054641474
18	0xbf0e8ca1	-0.5568333
19	0x3e393a0d	0.18088551
20	0xbe3b8b52	-0.18314865
21	0x3d13da5c	0.036096916
22	0xbf1e3df6	-0.61813295
23	0x3f81f579	1.0153037

bias f4 [4]
0	0x3e4a4f7c	0.19756883
1	0x3ed9cf48	0.42540956
2	0xbe863497	-0.26211998
3	0xbdb77aa7	-0.08958941
