Assignment3/ipynb/MLP_Training/200_question_data/units_7/left_out_3_model.pt (torch, 3095 bytes, 4 tensors)

weight f4 [7, 3]
000000 3d 72 6c 3f b2 b3 4e 3d 04 0f 55 3f 84 d1 1d 3f
       0.92361814 0.05046434 0.8322604 0.6164782
000010 0d dd af 3e 60 5e 9b 3c 66 0c c1 3e 10 11 08 bf
       0.34348336 0.0189659 0.37704772 -0.53151035
000020 79 9b 83 3e a1 28 b1 be 68 2a ef bd b0 e9 fa 3e
       0.25704554 -0.3460131 -0.1167801 0.49006414
000030 e9 98 ce 3e 0f 41 e8 be 10 47 69 be e3 31 a6 3e
       0.40351036 -0.45362136 -0.22781014 0.32459936
000040 38 22 74 be f6 eb 13 bf 27 0b d5 be 46 cb 7e bf
       -0.23841178 -0.5778192 -0.4161007 -0.9952892
000050 5a ea 9f 3d
       0.07808371

bias f4 [7]
000000 57 10 ca 3d b8 23 4e 3d ec 9f f4 3e e0 b7 f3 3e
       0.09866398 0.050327033 0.4777826 0.47601223
000010 7e 17 05 3f 99 aa 7a 3e 26 c4 e4 be
       0.5198897 0.2447914 -0.446809

weight f4 [4, 7]
000000 35 13 5a bf 03 0c 19 be 8b 11 a7 be 50 a4 70 3e
       -0.8518556 -0.14945988 -0.32630572 0.2350018
000010 6c 9f 79 be 08 4f 66 bd 53 04 16 bf 5a 51 85 3f
       -0.24377221 -0.056227714 -0.5860035 1.0415452
000020 50 06 91 3e 84 97 05 3e 9c 64 04 3f c3 43 05 bd
       0.2832513 0.1304608 0.5171602 -0.032535326
000030 13 8a f3 be 98 72 95 be 76 ce aa 3e 47 21 ce 3e
       -0.4756628 -0.2918899 0.33360642 0.40259764
000040 08 e3 33 be bd ec 01 bf cf af ab 3e 66 ec 1d 3f
       -0.17567074 -0.5075186 0.3353257 0.6168884
000050 f9 68 ce be 43 6a 55 be 0f bd 60 be fc e4 84 3d
       -0.40314463 -0.20841317 -0.2194712 0.06488988
000060 6d 16 c6 3d 3c 02 a9 3e 2a a3 ca 3e ae 0a 69 3f
       0.09672246 0.33009517 0.3957761 0.9103192

bias f4 [4]
000000 6f 98 f9 3d 29 93 87 3d 12 62 98 3e 32 81 67 3e
       0.121872775 0.066198654 0.29762322 0.22607878
