Assignment4/Trained_MLP/train_q1.txt_units_6/run_0.pt (torch, 2839 bytes, 3 tensors)

weight f4 [6, 2]
-0.28422594 0.23294637 -0.47256434 -0.19517125 -0.5434632 0.20735286 0.3393662 0.7068375
-0.6161526 -0.2859872 0.7452022 0.054296423
00000000: 1086 91be 7e89 6e3e f4f3 f1be f9da 47be
00000010: 6720 0bbf 4f54 543e 68c1 ad3e 4df3 343f
00000020: 2dbc 1dbf ea6c 92be 92c5 3e3f ed65 5e3d

bias f4 [6]
0.078827344 1.2830402 -3.0372627 0.024695318 -3.7325518 -4.0447764
00000000: 3b70 a13d a93a a43f 8362 42c0 d64d ca3c
00000010: 21e2 6ec0 cf6e 81c0

weight f4 [1, 6]
0.0062538413 -1.009914 2.534652 0.03883085 3.2205355 -3.4124885
00000000: 06ed cc3b dd44 81bf bd37 2240 190d 1f3d
00000010: 411d 4e40 3666 5ac0
