Assignment3/ipynb/MLP_Training/100_question_data/units_5/left_out_8_model.pt (torch, 3031 bytes, 4 tensors)

weight f4 [5, 3]
0	0x3e24174a	0.16024509
1	0x3e2c91b7	0.16852461
2	0x3f633f38	0.8876834
3	0xbf8f12c8	-1.1177607
4	0x3e92211c	0.28540885
5	0x3cd78449	0.026308196
6	0xbe81a61e	-0.2532205
7	0xbf58c3a4	-0.84673524
8	0x3da64b31	0.081198104
9	0x3eb9240f	0.36160323
10	0x3d05bb0c	0.032649085
11	0xbee9bcaf	-0.45651767
12	0x3e82549d	0.2545518
13	0x3dc97a9f	0.09837841
14	0x3f0dece0	0.5543957

bias f4 [5]
0	0xbcac13ac	-0.021005474
1	0xbc940d9c	-0.018072896
2	0x3e6b31c0	0.22968197
3	0x3f07a669	0.52988297
4	0x3eb15cd1	0.34641126

weight f4 [4, 5]
0	0xbea74bf9	-0.3267515
1	0x3f728f3f	0.94749826
2	0xbedfe487	-0.4372904
3	0xbde1fea5	-0.11034898
4	0x3e4d2b2b	0.20035999
5	0x3f4bdf74	0.7963784
6	0xbd9283ad	-0.071540214
7	0xbe2e9994	-0.17050773
8	0xbbd9424d	-0.006630218
9	0x3f552828	0.832644
10	0xbdd6f6da	-0.10496302
11	0xbf139bd3	-0.57659644
12	0xbf210bfe	-0.62908924
13	0x3eecc995	0.46247545
14	0xbc840331	-0.016114803
15	0xbedf4f80	-0.4361534
16	0x3ea56319	0.32302168
17	0x3f149f50	0.5805559
18	0xbe04f5fd	-0.12984462
19	0x3b0d8a86	0.002159746

bias f4 [4]
0	0x3c9e3fb3	0.019317484
1	0x3e895684	0.2682382
2	0xbd10348f	-0.035206374
3	0xbe4c59ef	-0.19956182
