Assignment3/ipynb/MLP_Training/2000_question_data/units_8/left_out_0_model.pt (torch, 3159 bytes, 4 tensors)

weight f4 [8, 3]
00000000: 47bc 023e a7db f83e 9aeb 213f c888 bdbe
00000010: d5a8 26bf b411 3dbe 1e68 f4bd 9ed1 463e
00000020: 9c79 cf3e 909b a8be a047 1f3e 4ebe 4abe
00000030: cbba 9c3e 1fec 193f 1327 20bf f3ed 823f
00000040: 0ef0 0f3f 7506 bdbc 3c77 213f b1c1 33be
00000050: 3b11 3f3f c4ac 31bf 7a11 223f 099e b7bb
0.12767135 0.4860508 0.63250124 -0.37018418 -0.6510137 -0.18463784 -0.11933921 0.194159
0.40522468 -0.32931185 0.15554667 -0.19799158 0.30611262 0.6012592 -0.6255962 1.0228866
0.5622567 -0.023074368 0.6307256 -0.17554356 0.74635667 -0.69404244 0.6330792 -0.005603556

bias f4 [8]
00000000: 92b1 eb3e 50fb 6cbe 90f6 de3e 2151 86be
00000010: 6e7e 2ebd a584 86be 39c3 303d 63af e7be
0.46033913 -0.23142743 0.43547487 -0.2623377 -0.04260104 -0.26273075 0.04315493 -0.45250997

weight f4 [4, 8]
00000000: 7446 7f3c 0b87 90be e35f 323e aea0 d93e
00000010: cab6 803e 8dc5 acbe bbd0 17bf 53ab 043f
00000020: a360 473f 9e02 b7be 84b3 023f 88f7 873d
00000030: 6c6e eebe 9550 f73e 7008 e33e ce2a adbe
00000040: e4c6 83bb 2d12 d0be 53e0 93be 93b5 f63d
00000050: 7910 fa3e 2749 313f 118f 41be bd3c 10bf
00000060: a585 e9be c54c ec3e 645d 1f3d e1cd 513e
00000070: a488 0dbf 8d76 16bf c6ba cdbe b9f7 e5be
0.015580762 -0.2822803 0.1741939 0.425054 0.25139457 -0.3374447 -0.5930287 0.5182392
0.7788183 -0.35744184 0.5105517 0.0663901 -0.4656862 0.48303667 0.44342375 -0.3382172
-0.0040215123 -0.40638867 -0.28882083 0.12046351 0.48840693 0.69252247 -0.18902232 -0.5634268
-0.45609775 0.4615232 0.038907424 0.20488693 -0.5528662 -0.58774644 -0.4018156 -0.4491556

bias f4 [4]
00000000: bc7a 443e 0fbc 4dbe d90b 863e a83c bc3e
0.19187444 -0.2009127 0.26180914 0.36765027
