Assignment3/ipynb/MLP_Training/2000_question_data/units_8/left_out_5_model.pt (torch, 3159 bytes, 4 tensors)

weight f4 [8, 3]
0.5164238 -0.42056948 0.099683285 -0.89980644 -0.74493986 -0.5714321 -0.35725772 -0.4161625
-0.11635837 -0.017625548 -0.45138216 0.47866973 0.00908294 -0.45695215 0.16155979 -0.07489959
0.083035596 0.7721993 -0.81853884 0.38308856 -0.18980642 0.32757095 -0.11021595 -0.7397515
00000000: 5a34 043f e254 d7be c026 cc3d b759 66bf
00000010: 61b4 3ebf 6049 12bf 7cea b6be 4013 d5be
00000020: 4c4d eebd 7463 90bc 901b e7be 3314 f53e
00000030: 9dd0 143c a2f5 e9be ee6f 253e f564 99bd
00000040: 910e aa3d daae 453f c38b 51bf 2f24 c43e
00000050: 9d5c 42be 61b7 a73e e6b8 e1bd 5b60 3dbf

bias f4 [8]
0.46927848 0.03499313 0.26052853 0.493055 -0.44333985 0.13185517 -0.13887924 -0.006084478
00000000: 4545 f03e f554 0f3d ff63 853e b471 fc3e
00000010: 71fd e2be 0b05 073e 5c36 0ebe 4d60 c7bb

weight f4 [4, 8]
-0.5499179 0.15021263 0.16577062 -0.27129906 -0.18068466 0.08493879 0.7486432 0.11106748
0.36784208 -0.79750663 -0.25909263 0.34162608 -0.104478136 0.46575013 -0.14550708 -0.38555562
0.27120033 -0.6062319 -0.24410035 -0.11134698 -0.27946782 -0.6565461 -0.1591007 0.57727367
0.2738979 0.74445146 0.33386633 0.4104672 -0.04352708 -0.011220114 0.07589309 0.10295879
00000000: 6bc7 0cbf 57d1 193e c6bf 293e b6e7 8abe
00000010: 6605 39be 63f4 ad3d 15a7 3f3f 5977 e33d
00000020: cc55 bc3e 6529 4cbf caa7 84be 9de9 ae3e
00000030: a2f8 d5bd cd76 ee3e cfff 14be 8c67 c5be
00000040: c5da 8a3e 0432 1bbf 71f5 79be e309 e4bd
00000050: 6816 8fbe 6813 28bf 4beb 22be 35c8 133f
00000060: 583c 8c3e 5f94 3e3f 87f0 aa3e c228 d23e
00000070: 7449 32bd 92d4 37bc d66d 9b3d 0fdc d23d

bias f4 [4]
0.20528074 0.2048079 0.3512054 -0.23536836
00000000: 1d35 523e 2ab9 513e 32d1 b33e 6704 71be
