Assignment3/ipynb/MLP_Training/5000_question_data/units_5/left_out_0_model.pt (torch, 3031 bytes, 4 tensors)

weight f4 [5, 3]
00000000: 7701 17bf 8a48 cd3d d54f 89bf 9d39 16bf
00000010: 5b61 593e 1522 be3e 10e0 823f af1f e63e
00000020: 44a8 9cbe c67f 153e ce45 0bbf bf85 803e
00000030: 97fe 113e 78fe 55bf d465 38bf
-0.5898661 0.10023601 -1.0727488 -0.5868166 0.21228544 0.37135378 1.0224628 0.44946048
-0.30597126 0.14599523 -0.5440339 0.2510204 0.14257275 -0.83591413 -0.7203038

bias f4 [5]
00000000: 8b0a b13e 5190 ebbe 25e9 b83e 5b6b d5bd
00000010: 75a2 0a3e
0.34578356 -0.46008542 0.36115375 -0.10420867 0.13538535

weight f4 [4, 5]
00000000: 3ca9 4d3f 99cc f93e 56a9 ecbd 1943 b0be
00000010: 6d5f 19bf cd39 8abf fe6a 503e 8bfd 1e3f
00000020: dc46 95bd 3d0d 46bf f933 3cbc eeb6 aebd
00000030: 43a8 5a3f f633 82be ad99 cd3d 2b57 a03e
00000040: b449 803e 9bb8 3abf 4b2b 9e3e 21cc 0d3f
0.80336356 0.48788908 -0.11555736 -0.3442619 -0.59911233 -1.0798889 0.20353314 0.62105626
-0.07288906 -0.7736395 -0.011487001 -0.08530985 0.85412997 -0.25430268 0.10039077 0.31316504
0.2505623 -0.72937936 0.30892405 0.553896

bias f4 [4]
00000000: 4d66 ae3d 74c3 843e 85e6 823d 3cfd 7f3e
0.08515606 0.2593037 0.06391624 0.24998945
