Assignment3/ipynb/MLP_Training/2000_question_data/units_7/left_out_5_model.pt (torch, 3095 bytes, 4 tensors)

weight f4 [7, 3]
000000 84 50 dc be ec 09 0d bf fb 9e 60 3c 6c 94 3a 3f
       -0.4303018 -0.55093265 0.013709779 0.72882724
000010 6a fa c5 3e 62 0d fd 3d ef 56 18 3f 73 27 4b 3f
       0.38667613 0.12356068 0.5950765 0.7935707
000020 c7 be e1 be 5b 0f f2 bd 7d d6 45 be 74 31 23 3f
       -0.44090864 -0.11819335 -0.19320102 0.63747334
000030 50 8f b0 be ae 07 2f 3f 32 c0 78 3e ea 21 fb 3e
       -0.3448434 0.68371093 0.24292067 0.49049312
000040 b1 09 c9 3d de 31 83 3f e0 49 0e 3f 48 64 3d be
       0.098163016 1.0249593 0.55581474 -0.18495286
000050 9d 23 02 be
       -0.12708898

bias f4 [7]
000000 b5 15 03 3e 33 9b 93 bd 49 34 6a 3d 9a d8 cd 3e
       0.1280125 -0.07207336 0.05717877 0.40204316
000010 17 7c 94 bd 55 2c 05 be 74 b4 88 3e
       -0.07250231 -0.13005193 0.26700175

weight f4 [4, 7]
000000 cb 2a 86 bd 51 0a 6c be e3 f2 82 3e b2 93 f3 3c
       -0.06551131 -0.2305081 0.25575933 0.029733513
000010 f9 de fb 3e 65 e1 34 bf 14 e7 06 bf 3e 9c a5 be
       0.49193552 -0.70656425 -0.5269635 -0.32345766
000020 6d 33 eb 3e 1c 73 42 bd fa 41 2b 3f aa 1d 4e 3e
       0.45937672 -0.047473058 0.6689755 0.20128503
000030 d6 51 85 3f 2c 6b 29 3e 90 33 ee bd b3 3c 06 3f
       1.0415599 0.16544789 -0.116309285 0.5243637
000040 88 b1 30 3f 1b 44 ce be c6 5f d4 be ff 48 3f 3c
       0.6902089 -0.40286335 -0.4147932 0.0116751185
000050 d8 c4 8e 3e ac 4f e9 3e 45 83 2d bf ba 54 14 bf
       0.27884555 0.45568597 -0.67778426 -0.5794178
000060 9b 5f 54 3e fb 19 af be 1a b8 77 bc c7 3d 2e 3e
       0.20739596 -0.3419951 -0.015119577 0.17015754

bias f4 [4]
000000 00 7b 08 3e bd 95 0a 3e 8b db 9f bd a2 2f 81 3e
       0.13328171 0.13533683 -0.078055464 0.25231653
