Assignment3/ipynb/MLP_Training/100_question_data/units_7/left_out_7_model.pt (torch, 3095 bytes, 4 tensors)

weight f4 [7, 3]
-0.090235084 0.44882324 0.56530565 -0.091325775 0.45046267 0.4857903 0.54956007 0.4102206
0.7246369 -0.63565904 0.78286296 -0.18829948 0.45877218 0.070469454 0.112767264 0.53413594
0.5619791 -0.559368 0.43886772 0.13002981 0.19085406
00000000: 2ccd b8bd 29cc e53e dfb7 103f 0209 bbbd
00000010: 0ba3 e63e 82b9 f83e f8af 0c3f 6f08 d23e
00000020: ce81 393f 8dba 22bf b569 483f 94d1 40be
00000030: 30e4 ea3e 4a52 903d 86f2 e63d 22bd 083f
00000040: dddd 0f3f be32 0fbf 45b3 e03e 8926 053e
00000050: 3f6f 433e

bias f4 [7]
-0.45969197 -0.46503016 0.41435614 -0.22734965 -0.5243373 -0.43152985 -0.4676181
00000000: bf5c ebbe 6f18 eebe 7d26 d43e 59ce 68be
00000010: f83a 06bf 7bf1 dcbe a46b efbe

weight f4 [4, 7]
-0.19190224 -0.016441775 -0.23900294 0.8644142 -0.1717615 0.07395553 0.07417836 0.0076182256
0.24064755 0.92192906 -0.19576395 0.020443866 -0.15546602 0.37858802 -0.36455896 -0.29802582
0.10963738 0.12863392 0.12930152 0.7214968 0.43619472 -0.26842758 -0.1295725 -0.7072663
-0.17575692 0.050629757 -0.27825606 -0.18949616
00000000: 0582 44be e7b0 86bc 30bd 74be 404a 5d3f
00000010: 3fe2 2fbe ff75 973d d3ea 973d 4fa2 f93b
00000020: 506c 763e 8b03 6c3f 5876 48be e579 a73c
00000030: 7c32 1fbe 4ad6 c13e 79a7 babe d796 98be
00000040: 9089 e03d 9cb8 033e 9e67 043e 04b4 383f
00000050: ea54 df3e 576f 89be a7ae 04be 670f 35bf
00000060: 9ff9 33be 2661 4f3d 9477 8ebe 480b 42be

bias f4 [4]
0.063050814 0.20490816 0.1661456 -0.024669122
00000000: c920 813d 72d3 513e 1222 2a3e e616 cabc
