Assignment3/ipynb/MLP_Training/5000_question_data/units_7/left_out_2_model.pt (torch, 3095 bytes, 4 tensors)

weight f4 [7, 3]
0	0xbf46674b	-0.7750136
1	0x3ebc957b	0.36832795
2	0xbeac37f4	-0.3363644
3	0xbea10072	-0.31445652
4	0xbd414455	-0.047184307
5	0x3f2b58d4	0.66932416
6	0xbf28a4ea	-0.6587664
7	0xbeffa2ab	-0.49928793
8	0xbf208847	-0.6270794
9	0x3f7f46bf	0.99717325
10	0x3f101dc7	0.56295437
11	0xbe1fe1fd	-0.15613551
12	0x3bf285ae	0.0074011898
13	0xbf3afcba	-0.7304188
14	0x3ed2cf2f	0.41173694
15	0x3ecabe45	0.3959829
16	0x3f04e5c0	0.5191307
17	0x3f51cd6f	0.8195409
18	0x3e5aa98f	0.21353744
19	0x3e8ee39c	0.27908027
20	0xbf0ce26a	-0.5503298

bias f4 [7]
0	0xbe5411d1	-0.20709921
1	0xbe86c03e	-0.26318544
2	0xbe8833a7	-0.26601908
3	0x3df8e04a	0.12152155
4	0x3e0a7603	0.1352158
5	0xbdc95e93	-0.09832492
6	0xbca85a6b	-0.020550927

weight f4 [4, 7]
0	0x3f4d3374	0.80156636
1	0x3e23c5c3	0.15993409
2	0x3e81eccd	0.25375977
3	0xbeb9b027	-0.36267206
4	0xbf34afa9	-0.70580536
5	0x3e175a56	0.14780554
6	0x3ed31f93	0.41235027
7	0xbe63212b	-0.22180621
8	0x3edd89df	0.4326925
9	0xbeebfeb4	-0.4609276
10	0x3e35c984	0.17752653
11	0x3d8fde62	0.07024838
12	0x3f4af9be	0.79287326
13	0xbd90e5f7	-0.07075112
14	0xbe5a1482	-0.21296886
15	0xbe50c289	-0.2038671
16	0x3d801fea	0.06256087
17	0x3f2981c9	0.6621366
18	0xbe6e051a	-0.23244134
19	0xbe839735	-0.257013
20	0x3f14bb07	0.5809788
21	0x3de2bb88	0.11070925
22	0x3e2b53c7	0.16731177
23	0x3f4b380a	0.79382384
24	0xbf282d72	-0.65694344
25	0x3e968207	0.29396078
26	0xbf0611cb	-0.523709
27	0x3e195c71	0.1497667

bias f4 [4]
0	0x3e96303c	0.29333675
1	0x3d7e5f2a	0.062102474
2	0xbe0fb95b	-0.14035551
3	0x3d3a185e	0.045433395
