Assignment3/ipynb/MLP_Training/5000_question_data/units_7/left_out_4_model.pt (torch, 3095 bytes, 4 tensors)

weight f4 [7, 3]
000000 48 62 a9 bd a9 6e 39 bf 25 51 fc 3d 42 e5 44 bf
       -0.08270699 -0.7243448 0.123201646 -0.7691232
000010 06 35 2c 3f cc 9f ff be d5 65 3d 3f 80 32 ad 3e
       0.6726841 -0.49926603 0.7398351 0.3382759
000020 16 4f 08 bf 55 55 73 3d a8 f7 4f be 92 df 7f bf
       -0.53245676 0.05940755 -0.20309317 -0.99950516
000030 46 af 4a 3f 8b 09 55 3f 15 72 93 3e 89 b4 35 3f
       0.79173696 0.83217686 0.28797975 0.709786
000040 ff f5 d7 bd ee 83 17 3e 22 33 6d be bc 4a f2 3e
       -0.10544967 0.14796421 -0.23164037 0.47322643
000050 31 50 6a 3e
       0.22882153

bias f4 [7]
000000 6e 09 83 3e 7c 15 3e 3e b0 f9 8e be 37 ea 31 3e
       0.25593132 0.18562883 -0.2792487 0.17374502
000010 96 12 87 be e1 dc 22 3f 3c 37 60 3e
       -0.26381367 0.63618284 0.2189607

weight f4 [4, 7]
000000 a8 9d 64 bd 41 92 61 3f f3 88 ff 3b 27 84 4a 3e
       -0.055814415 0.8811379 0.007798308 0.19776975
000010 a1 5e 34 be 50 ce 36 be c8 75 9b 3d ff 15 f4 bd
       -0.17614223 -0.1785214 0.07590824 -0.11918258
000020 5f 84 15 bf 0a ce 0b be 5d 97 25 bf 19 47 12 3f
       -0.5840511 -0.13652816 -0.6468409 0.57139736
000030 e2 f6 ef 3e b1 05 b0 3e 57 ea d5 be 31 eb ca bd
       0.46868044 0.34379342 -0.4178035 -0.099081405
000040 bc 25 1d 3f 71 75 f9 3e e1 55 8a 3e 2e 74 b3 3e
       0.61385703 0.48722413 0.27018645 0.35049576
000050 35 6e 67 be 5e a9 07 3f 91 1e dd bd d5 ed 13 bf
       -0.22600634 0.5299281 -0.10796846 -0.5778478
000060 93 f9 1c 3f 14 72 4c bf 17 fe 9e be e7 a1 d1 bd
       0.6131832 -0.7986157 -0.3105323 -0.102359585

bias f4 [4]
000000 ee b3 78 be cd 4b 56 3e e3 5e 5a 3e ae 17 38 3e
       -0.24287388 0.20927353 0.21325259 0.17977783
