Assignment4/MLP_Training/units_5/left_out_7_model.pt (torch, 2839 bytes, 3 tensors)

weight f4 [5, 2]
00000000: a4c9 b0be 0b44 58be ca08 4fbf 733a 7dbd
00000010: b387 b4be 69d3 9f3d 6937 383f 7d42 393d
00000020: 1854 523e 2707 82be
-0.3452884 -0.21119706 -0.80872786 -0.06182332 -0.3525978 0.07803995 0.7195955 0.045229424
0.20539892 -0.25396082

bias f4 [5]
00000000: 4152 ff3e d372 9bc0 1d4a 8b3d 2ef7 5fc0
00000010: e733 ee3e
0.49867442 -4.8577666 0.06801245 -3.4994617 0.46523973

weight f4 [1, 5]
00000000: b2be 36bf 33dc 8040 e447 0ebf ba65 45c0
00000010: a807 103e
-0.7138473 4.02688 -0.55578446 -3.084334 0.1406542
