Assignment3/ipynb/MLP_Training/5000_question_data/units_10/left_out_3_model.pt (torch, 3159 bytes, 4 tensors)

weight f4 [10, 3]
0.28674382 -0.030889027 0.54119706 -0.70652133 -0.5511963 -0.1661975 0.22166164 0.576165
-0.015790347 0.62047917 0.24520408 -0.26969802 -0.8194956 0.3069022 -0.6177001 0.3340047
-0.16114333 -0.339616 -0.08178817 0.6747728 0.287881 0.32935596 -0.4211589 -0.5101472
-0.0735341 0.19415326 -0.7530574 0.33152196 0.07928754 0.4849499
00000000: 16d0 923e fc0a fdbc e48b 0a3f 95de 34bf
00000010: 331b 0dbf ad2f 2abe 45fb 623e 8d7f 133f
00000020: c25a 81bc b9d7 1e3f c716 7b3e dc15 8abe
00000030: 77ca 51bf 4922 9d3e 9821 1ebf aa02 ab3e
00000040: c202 25be 26e2 adbe 8e80 a7bd e9bd 2c3f
00000050: 2365 933e 58a1 a83e 24a2 d7be 0299 02bf
00000060: 0c99 96bd 1dd0 463e 5fc8 40bf 3fbd a93e
00000070: 8161 a23d 5a4b f83e

bias f4 [10]
0.2923274 0.5710129 0.62172955 0.30685177 0.10207534 0.04991935 -0.070266746 0.19429995
0.38905606 -0.16994023
00000000: f0ab 953e e72d 123f ab29 1f3f ad1b 9d3e
00000010: e00c d13d 3b78 4c3d 03e8 8fbd 91f6 463e
00000020: 5b32 c73e d004 2ebe

weight f4 [4, 10]
-0.3073569 0.107417434 0.3023439 -0.2329727 0.7017009 -0.15830564 0.27881542 -0.055126872
0.19488275 0.059599537 0.44076368 -0.31066892 0.46924266 -0.009381538 -0.4114847 -0.16391698
0.36107802 -0.22120358 -0.50973207 0.44582325 -0.29956138 -0.52432936 0.4282563 0.40783572
-0.17444769 0.38403392 0.011798915 0.33926472 0.31800672 0.004251594 -0.28070027 0.7240606
-0.18389101 -0.36568406 0.17192782 -0.18559833 -0.47267902 0.38448614 0.057046458 -0.07580476
00000000: e25d 9dbe acfd db3d d2cc 9a3e 6590 6ebe
00000010: aca2 333f e01a 22be e5c0 8e3e b7cc 61bd
00000020: 588f 473e a51e 743d c7ab e13e ff0f 9fbe
00000030: 9340 f03e 06b5 19bc 1fae d2be dad9 27be
00000040: 38df b83e 3183 62be cd7d 02bf f242 e43e
00000050: 1c60 99be 733a 06bf 6944 db3e d8cf d03e
00000060: 6aa2 32be 18a0 c43e 3d50 413c 1bb4 ad3e
00000070: c7d1 a23e f550 8b3b f2b7 8fbe 095c 393f
00000080: ed4d 3cbe f13a bbbe d90d 303e 7d0d 3ebe
00000090: fc02 f2be 5edb c43e 8ca9 693d 873f 9bbd

bias f4 [4]
0.16162995 0.46164978 0.2847847 0.058366604
00000000: 5282 253e 5c5d ec3e 4dcf 913e d211 6f3d
