Assignment3/ipynb/MLP_Training/5000_question_data/units_10/left_out_4_model.pt (torch, 3223 bytes, 4 tensors)

weight f4 [10, 3]
0.4825794 -0.12847744 -0.5905758 0.21317834 0.22895461 0.8101949 0.53606343 0.2411517
0.800913 -0.9662522 -0.24319883 0.086242214 -0.40999404 -0.43683913 0.07426871 0.26478982
-0.8000434 -0.49316135 0.4200372 -0.4889264 0.10128839 -0.19989415 -0.52037644 0.044507105
0.1401905 -0.17734095 0.2387355 -0.26044917 -0.6130518 0.46412635
00000000: a614 f73e 978f 03be fa2f 17bf 6c4b 5a3e
00000010: 1473 6a3e ef68 4f3f 743b 093f 79f0 763e
00000020: a208 4d3f 4e5c 77bf 1d09 79be c29f b03d
00000030: bdea d1be 61a9 dfbe 321a 983d 8892 873e
00000040: a5cf 4cbf a57f fcbe 1e0f d73e 9054 fabe
00000050: 4a70 cf3d 0db1 4cbe 6437 05bf 154d 363d
00000060: 198e 0f3e de98 35be 1477 743e 9859 85be
00000070: f6f0 1cbf f8a1 ed3e

bias f4 [10]
-0.06334391 0.59613323 -0.38737723 0.47417334 0.354558 0.0042086574 0.12014497 -0.33526093
-0.17428276 -0.041326262
00000000: 74ba 81bd 309c 183f 4f56 c6be d9c6 f23e
00000010: a088 b53e c7e8 893b 910e f63d 52a7 abbe
00000020: 2e77 32be ba45 29bd

weight f4 [4, 10]
-0.30335718 -0.21487501 -0.4621987 0.399489 -0.09969392 -0.31939617 -0.37778562 -0.041976336
-0.23526675 -0.31979138 -0.34340057 0.76487625 0.60939 -0.031727165 -0.24756075 -0.1330368
0.26050335 -0.0729957 0.08130728 0.37395802 0.38638753 0.03846742 -0.16467915 -0.8146043
-0.33958358 0.064913034 0.08383097 0.0263427 -0.15153928 -0.4041718 -0.12952438 -0.07495345
-0.31542748 0.42282695 0.38356724 0.53521395 0.16786803 0.15477747 0.020608341 0.44089854
00000000: a251 9bbe 3208 5cbe 4fa5 ecbe d289 cc3e
00000010: 532c ccbd e587 a3be 1e6d c1be 61ef 2bbd
00000020: c4e9 70be b2bb a3be 33d2 afbe eece 433f
00000030: fc00 1c3f 58f4 01bd 9180 7dbe cd3a 08be
00000040: b260 853e c57e 95bd 6e84 a63d 6d77 bf3e
00000050: 96d4 c53e 0390 1d3d a7a1 28be e889 50bf
00000060: e6dd adbe 20f1 843d 92af ab3d a5cc d73c
00000070: 1d2d 1bbe 9bef cebe 0aa2 04be 3281 99bd
00000080: b67f a1be c67c d83e ed62 c43e c803 093f
00000090: 99e5 2b3e fc7d 1e3e d3d2 a83c 74bd e13e

bias f4 [4]
0.14195898 0.044628993 0.41097888 -0.042522173
00000000: b25d 113e e4cc 363d d36b d23e bb2b 2ebd
