Assignment3/ipynb/Trained_MLP/500_question_data_units_4/run_1.pt (torch, 3031 bytes, 4 tensors)

weight f4 [4, 3]
00000000: 2804 413f be2e 703f f32d a7be 678a 133f
00000010: a352 6cbe d07c f6be f46c 663f c72c cebe
00000020: 9f46 923d ec48 453f 53bc a43e d454 3e3f
0.75396967 0.9382132 -0.32652244 0.5763306 -0.23078398 -0.481421 0.9001 -0.40268537
0.07142376 0.77064395 0.3217493 0.7434819

bias f4 [4]
00000000: c571 703e 71c4 8b3e 6ffa bc3e c9e6 593e
0.234809 0.2729831 0.36909816 0.21279444

weight f4 [4, 4]
00000000: 01bc 153f ccd5 ebbe ded2 81bf f6ab aabe
00000010: eccd 973e ae3b f7be 2e27 253f 27ef 3f3f
00000020: c021 653f 5594 173f b4f9 283f f0c3 8dbe
00000030: fd4b 24bf 777f 8b3d d24b c63e 0b32 56bf
0.58489996 -0.46061552 -1.0142477 -0.3333432 0.29649293 -0.4828772 0.6451291 0.7497429
0.89504623 0.5921071 0.66006017 -0.2768855 -0.6417845 0.06811421 0.3872972 -0.8367011

bias f4 [4]
00000000: 2bd2 673e 7b7e 36be 0495 bdbe ddf6 fb3e
0.22638766 -0.17821686 -0.37027752 0.4921178
