Assignment4/MLP_Training/units_4/left_out_2_model.pt (torch, 2839 bytes, 3 tensors)

weight f4 [4, 2]
-0.4408387 -0.43166032 -0.8043836 -0.04115172 -0.37005532 0.14685959 0.7532765 0.047327526
00000000: 9cb5 e1be 9502 ddbe 15ec 4dbf b58e 28bd
00000010: e477 bdbe 5c62 163e bbd6 403f 82da 413d

bias f4 [4]
0.22253789 -4.6621957 0.20783918 -4.2503676
00000000: f9e0 633e b530 95c0 cbd3 543e 0303 88c0

weight f4 [1, 4]
-0.27850613 4.0070324 -0.7360915 -3.376142
00000000: 5b98 8ebe 9c39 8040 7e70 3cbf b612 58c0
