Assignment4/MLP_Training/units_4/left_out_5_model.pt (torch, 2839 bytes, 3 tensors)

weight f4 [4, 2]
00000000: dd85 3d3f d136 1d3d 3df6 a43e e167 c03e
00000010: 680b 10bf 9099 9dbe d7be 4fbf b1a3 c3bd
0.74032384 0.038382355 0.32219115 0.37579253 -0.56267405 -0.3078122 -0.81150573 -0.09552706

bias f4 [4]
00000000: 9065 84c0 ba4f 77bf 29e7 c83e 9ce5 95c0
-4.137398 -0.9660603 0.3923886 -4.6842785

weight f4 [1, 4]
00000000: 63dd 4dc0 fda3 0ebe a39a 2ebf 6d19 7a40
-3.2166374 -0.13929744 -0.68204707 3.9078019
