Assignment3/ipynb/MLP_Training/100_question_data/units_9/left_out_0_model.pt (torch, 3159 bytes, 4 tensors)

weight f4 [9, 3]
0.5229516 0.16419604 -0.0698738 0.24472274 0.06534676 0.8713424 0.8297517 0.10937295
0.49531376 -0.8530198 0.25959992 -0.1831371 -0.3943306 -0.2393898 -0.18126783 -0.17554076
0.25419226 -0.47395858 -0.05109658 -0.45230487 0.25848636 -0.24837154 0.69971895 -0.0338792
-0.49553776 -0.3580491 0.20209539
00000000: 28e0 053f 0223 283e ff19 8fbd 9998 7a3e
00000010: 86d4 853d 4c10 5f3f 9b6a 543f edfe df3d
00000020: c499 fd3e 815f 5abf 48ea 843e 4b88 3bbe
00000030: b3e5 c9be 9a22 75be 469e 39be f5c0 33be
00000040: 7d25 823e b3aa f2be a64a 51bd 8194 e7be
00000050: 5358 843e 1c55 7ebe c820 333f ebc4 0abd
00000060: 20b7 fdbe 3652 b7be 18f2 4e3e

bias f4 [9]
0.36525124 0.041495353 0.11590875 0.15390986 -0.4478366 -0.0185438 -0.23615684 0.34557578
-0.25389573
00000000: 3602 bb3e 08f7 293d 9161 ed3d 8c9a 1d3e
00000010: d74a e5be 2be9 97bc 19d3 71be 4fef b03e
00000020: 9ffe 81be

weight f4 [4, 9]
-0.14602007 -0.005141562 -0.5963185 0.48618618 0.05631493 0.017577318 -0.2907568 0.5633912
0.24453162 0.1989662 0.62290585 0.66396797 -0.16637284 -0.18611215 -0.3693335 -0.14317222
0.027747372 -0.10239168 0.50823504 -0.41335145 0.13306522 -0.46614447 -0.12322377 0.2866885
-0.10884964 0.17713623 -0.19174552 -0.24790534 -0.48328188 -0.37377203 0.18077478 0.47313857
0.14602324 0.24290475 -0.41203654 0.35171917
00000000: 4986 15be 8c7a a8bb 54a8 18bf 65ed f83e
00000010: 7caa 663d 4ffe 8f3c 13de 94be 683a 103f
00000020: 7f66 7a3e ccbd 4b3e c276 1f3f cef9 293f
00000030: a45d 2abe 2f94 3ebe 4819 bdbe bd9b 12be
00000040: 754e e33c bbb2 d1bd b11b 023f cda2 d3be
00000050: 4042 083e 7daa eebe be5c fcbd d6c8 923e
00000060: 8fec debd 3363 353e f058 44be e6da 7dbe
00000070: b970 f7be 0c5f bfbe 061d 393e 383f f23e
00000080: 1e87 153e 06bc 783e 74f6 d2be 8914 b43e

bias f4 [4]
-0.15165348 0.12358526 0.12832087 0.2585665
00000000: 0d4b 1bbe 451a fd3d 8c66 033e d462 843e
