Assignment4/MLP_Training/units_6/left_out_2_model.pt (torch, 2839 bytes, 3 tensors)

weight f4 [6, 2]
0	0xbf4d51b1	-0.80202776
1	0xbdca9f7e	-0.09893702
2	0xbebe9f3f	-0.3723087
3	0x3d678db0	0.056531608
4	0x3f367e10	0.71286106
5	0x3e0b647b	0.13612549
6	0x3ee56b73	0.4480854
7	0xbe44c7c0	-0.19216824
8	0xbf4b567e	-0.7942885
9	0xbecc904d	-0.39953843
10	0xbee31fb0	-0.44360113
11	0xbe9a92d5	-0.3019015

bias f4 [6]
0	0xc0918810	-4.547859
1	0xbf6c7633	-0.9236786
2	0xc083e1c0	-4.1213074
3	0xc0189e26	-2.3846526
4	0xbd4e1739	-0.050315116
5	0xbf9a9d7c	-1.207931

weight f4 [1, 6]
0	0x406afdbb	3.6717365
1	0x3e8540b8	0.2602594
2	0xc034edd6	-2.8270164
3	0xbf98e8c6	-1.1946037
4	0xbf4f2f68	-0.8093171
5	0x3f10f47c	0.56623054
