Assignment3/ipynb/MLP_Training/500_question_data/units_2/left_out_3_model.pt (torch, 2967 bytes, 4 tensors)

weight f4 [2, 3]
0.5060089 0.08781217 0.84055674 -0.23702335 0.90190446 -0.13427468
00000000: cd89 013f ded6 b33d ba2e 573f 40b6 72be
00000010: 36e3 663f 4d7f 09be

bias f4 [2]
0.034129076 -0.5585084
00000000: eeca 0b3d 68fa 0ebf

weight f4 [4, 2]
-0.9344174 0.7895362 1.0344069 -0.548479 -0.11000255 0.04895307 -0.4753222 -0.94427866
00000000: fb35 6fbf 0b1f 4a3f 7267 843f 1f69 0cbf
00000010: 0449 e1bd 0483 483d 6e5d f3be 3fbc 71bf

bias f4 [4]
-0.018737938 0.17832792 0.56958383 0.39373097
00000000: 4e80 99bc 989b 363e 3fd0 113f 1b97 c93e
