Assignment3/ipynb/MLP_Training/500_question_data/units_2/left_out_5_model.pt (torch, 2967 bytes, 4 tensors)

weight f4 [2, 3]
-0.23238415 0.33158657 0.72621924 1.1886661 0.3470178 0.23294671
00000000: 1cf6 6dbe b7c5 a93e 81e9 393f 3626 983f
00000010: 51ac b13e 9589 6e3e

bias f4 [2]
0.0063845976 0.01573963
00000000: e335 d13b 66f0 803c

weight f4 [4, 2]
0.26967806 -0.4876197 0.7766872 0.87222743 -0.448523 0.8268319 -0.44205943 -1.2026865
00000000: 3e13 8a3e 4aa9 f9be f9d4 463f 4c4a 5f3f
00000010: cfa4 e5be 41ab 533f 9d55 e2be a2f1 99bf

bias f4 [4]
0.31747043 -0.11485389 0.28516087 -0.06308896
00000000: 7c8b a23e 8438 ebbd 9b00 923e c934 81bd
