Assignment4/MLP_Training/units_2_5/left_out_3_model.pt (torch, 2839 bytes, 3 tensors)

weight f4 [5, 2]
0	0xbf4fe2af	-0.81205267
1	0xbd6858ba	-0.05672524
2	0x3f05a4b0	0.5220442
3	0xbe7bb5fc	-0.2458114
4	0xbefb9d0d	-0.49143258
5	0xbd878e88	-0.066189826
6	0x3f22a20b	0.6352851
7	0x3e789478	0.24275386
8	0x3ef69b54	0.4816538
9	0x3ec7fea2	0.39061457

bias f4 [5]
0	0xc090b6c4	-4.5223103
1	0xc009ccc7	-2.1531236
2	0x3f49c01c	0.7880876
3	0xc0439199	-3.0557616
4	0xbed9b094	-0.4251753

weight f4 [1, 5]
0	0x407c08a0	3.9380264
1	0xbfb66197	-1.4248532
2	0xbf8066f1	-1.0031415
3	0xc015b1d6	-2.3389792
4	0x3e077f69	0.13232197
