Assignment4/Trained_MLP/train_q1.txt_units_7/run_0.pt (torch, 2903 bytes, 3 tensors)

weight f4 [7, 2]
-0.2835632 -0.51132005 -0.7856223 -0.11046044 0.28182182 0.6888013 -0.6973748 -0.3122214
0.7829774 -0.014918862 -0.34383756 -0.54780406 0.43899527 -0.05867644
00000000: 322f 91be dfe5 02bf 8b1e 49bf 1539 e2bd
00000010: f34a 903e 4855 303f 2887 32bf 7cdb 9fbe
00000020: 3571 483f 3e6e 74bc 7a0b b0be e33c 0cbf
00000030: fdc3 e03e b556 70bd

bias f4 [7]
0.6892818 -5.0101213 -0.5562265 0.15444468 -4.5980644 -0.20595229 0.17343135
00000000: c674 303f ea52 a0c0 dc64 0ebf bf26 1e3e
00000010: 5823 93c0 28e5 52be fd97 313e

weight f4 [1, 7]
-0.68258077 4.2178288 -0.37381914 -0.040655874 -3.584811 0.15226333 0.42225128
00000000: 9dbd 2ebf 74f8 8640 3965 bfbe c686 26bd
00000010: 8b6d 65c0 ebea 1b3e 5231 d83e
