Assignment3/ipynb/MLP_Training/200_question_data/units_6/left_out_7_model.pt (torch, 3095 bytes, 4 tensors)

weight f4 [6, 3]
00000000: 3026 20bf 7421 45bf cca0 09bf 9e9b 703e
00000010: e41b e93d 81f4 653f d068 91bf f2fa ce3e
00000020: 9392 6ebe 376f 723e 04c3 ca3e 06b0 10bf
00000030: 97b6 d9be f4e0 f53e d1a6 e73e b8f1 9abd
00000040: 7ea1 22bf c3c2 45be
-0.6255827 -0.7700417 -0.5376098 0.23496863 0.11382273 0.8982621 -1.1360111 0.4042583
-0.23298101 0.23675238 0.3960191 -0.5651859 -0.42522117 0.48023188 0.45244458 -0.075656354
-0.6352767 -0.19312577

bias f4 [6]
00000000: bbf8 0d3f df4b a83e cf65 c5be 8574 49be
00000010: 396f 3ebd c886 86be
0.5545766 0.32870385 -0.38554236 -0.19673355 -0.04649279 -0.26274705

weight f4 [4, 6]
00000000: 894e cf3e 7985 713d 4360 6f3f a7c3 65be
00000010: 925a a73e 482e 85be c665 87be 35b9 6b3f
00000020: 5696 02bf eac3 f5be 7e17 c23e 7007 c8be
00000030: c0d6 aabb 3de1 5ebe b7cc 40bf 1922 d33e
00000040: c2a9 1dbe 0de6 3abe 4834 803f a0b4 b83d
00000050: 23e7 213e 7caa 1cbf 9c0b 54be a553 be3e
0.40489605 0.05896518 0.9350626 -0.22437917 0.32686287 -0.26011872 -0.26444834 0.9207948
-0.51010644 -0.48001033 0.37908548 -0.39068174 -0.0052135885 -0.21765609 -0.7531237 0.41236952
-0.15396789 -0.1825182 1.0015955 0.090188265 0.15810828 -0.6119764 -0.20707554 0.3717319

bias f4 [4]
00000000: e7d8 15be 4de5 2a3c e20f eb3e 622c a3be
-0.14633523 0.010430646 0.45910555 -0.318698
