Assignment3/ipynb/MLP_Training/200_question_data/units_6/left_out_1_model.pt (torch, 3095 bytes, 4 tensors)

weight f4 [6, 3]
0	0xbf991412	-1.195925
1	0x3cc248f1	0.023716422
2	0xbe4a90cb	-0.19781797
3	0x3e8d76d3	0.27629718
4	0xbf061d2c	-0.5238826
5	0xbdfa1d30	-0.12212598
6	0x3f17fcce	0.59370124
7	0x3f11b06c	0.56909823
8	0x3f537d40	0.8261299
9	0x3eb2e94b	0.34943613
10	0x3f4c3220	0.79763985
11	0xbeba1347	-0.36342832
12	0x3e855d08	0.2604754
13	0x3da24ad5	0.07924429
14	0xbf064b1a	-0.52458346
15	0x3e9f7d34	0.3115021
16	0x3e912925	0.28351703
17	0x3f0b9467	0.5452332

bias f4 [6]
0	0x3ed02a62	0.40657336
1	0x3ee79479	0.45230463
2	0xbd900cd7	-0.07033699
3	0x3f160db7	0.5861468
4	0x3cc47010	0.023979217
5	0x3e050185	0.12988861

weight f4 [4, 6]
0	0x3f5b051d	0.8555468
1	0xbf40a7fe	-0.75256336
2	0x3c119594	0.00888576
3	0x3ef09999	0.46992186
4	0xbcc9b253	-0.024621164
5	0xbd17be4a	-0.03704671
6	0xbe75449a	-0.2395195
7	0xbe4ef6ee	-0.20211384
8	0x3f696222	0.91165364
9	0x3d874e5a	0.06606741
10	0xbed97e5a	-0.4247921
11	0x3f2097d3	0.62731665
12	0xbf2d6c5f	-0.67743486
13	0x3ce25af3	0.027631259
14	0xbe165f45	-0.1468478
15	0x3f5ac30e	0.8545388
16	0x3f0134c4	0.5047114
17	0x3c2866e2	0.010278435
18	0x3f0f55cc	0.5599029
19	0x3e85e7bd	0.26153365
20	0xbf2910b9	-0.6604114
21	0xbf0ecde8	-0.5578294
22	0x3e2d79bc	0.16940969
23	0xbd883dec	-0.06652436

bias f4 [4]
0	0xbe74f19f	-0.23920296
1	0x3e169933	0.14706878
2	0x3da9472c	0.08265528
3	0x3d12d573	0.035848092
