Assignment3/ipynb/MLP_Training/2000_question_data/units_2/left_out_0_model.pt (torch, 2967 bytes, 4 tensors)

weight f4 [2, 3]
-1.2332516 -0.3829103 -0.47959626 -0.11394806 0.686603 -0.89792264
00000000: 30db 9dbf d20c c4be a48d f5be 9a5d e9bd
00000010: 37c5 2f3f 42de 65bf

bias f4 [2]
0.3765035 0.009687836
00000000: 11c5 c03e bbb9 1e3c

weight f4 [4, 2]
0.62480253 0.5440885 -0.73135674 -0.510099 -0.71434975 0.80155635 1.1449925 -0.77873653
00000000: 0ff3 1f3f 6249 0b3f 323a 3bbf d995 02bf
00000010: a0df 36bf cc32 4d3f 1d8f 923f 475b 47bf

bias f4 [4]
-0.29299957 0.6345247 0.013177397 -0.083421186
00000000: 0a04 96be 3670 223f 02e6 573c bad8 aabd
