Assignment3/ipynb/MLP_Training/5000_question_data/units_4/left_out_2_model.pt (torch, 3031 bytes, 4 tensors)

weight f4 [4, 3]
0	0xbee7f27e	-0.45302194
1	0x3ec94b99	0.3931549
2	0xbf9ff23e	-1.2495801
3	0x3e9e4f53	0.30919895
4	0x3dc000bd	0.09375141
5	0xbf164bc7	-0.5870938
6	0x3fa9382c	1.3220267
7	0x3ec21419	0.37905958
8	0xbe725dd2	-0.23668602
9	0xbec62fb2	-0.38708264
10	0xbf637ad5	-0.888593
11	0xbefd94a9	-0.4952748

bias f4 [4]
0	0x3e5dca30	0.2165916
1	0xbf013147	-0.50465816
2	0x3e24f564	0.16109234
3	0xbe194ee8	-0.14971507

weight f4 [4, 4]
0	0x3f898799	1.0744506
1	0xbe8e6d85	-0.27817932
2	0xbe723b40	-0.23655415
3	0xbe09242e	-0.13392708
4	0xbf83735c	-1.026958
5	0xbf348a42	-0.70523465
6	0x3f51fa8f	0.8202295
7	0xbeffd817	-0.4996955
8	0x3eff674d	0.498835
9	0x3ec5a5bd	0.3860301
10	0x3f71a19c	0.9438722
11	0xbe6ff9dc	-0.23435158
12	0x3ed7e6f1	0.42168382
13	0xbf27f4f7	-0.6560816
14	0xbf23cdc3	-0.6398584
15	0x3f870763	1.0549129

bias f4 [4]
0	0x3da07db8	0.07836479
1	0x3eb3fe5a	0.35154992
2	0x3d40f592	0.047109194
3	0x3e3b4461	0.18287803
