Assignment3/ipynb/MLP_Training/100_question_data/units_4/left_out_6_model.pt (torch, 3031 bytes, 4 tensors)

weight f4 [4, 3]
0	0xbf1f0539	-0.62117344
1	0xbed1d57f	-0.40983197
2	0xbda5c1eb	-0.080936275
3	0xbf1b2070	-0.6059637
4	0x3dc051b4	0.09390584
5	0x3e2a36a6	0.16622409
6	0xbf2d3be4	-0.6766951
7	0x3ea8df71	0.32982972
8	0xbe6dec84	-0.23234755
9	0x3e9fd560	0.3121748
10	0x3f11063b	0.5665013
11	0x3e0be95a	0.13663235

bias f4 [4]
0	0x3e826510	0.2546773
1	0x3ec448bf	0.3833675
2	0xbe377209	-0.17914595
3	0x3f1ab53d	0.604328

weight f4 [4, 4]
0	0x3d319d5c	0.04336296
1	0x3f0c1749	0.5472303
2	0x3f4f919c	0.8108156
3	0xbdc0ca02	-0.0941353
4	0xbe5d26a3	-0.2159677
5	0xbd6d3bee	-0.05791848
6	0xbf06f6f4	-0.5272057
7	0x3e89b59d	0.26896372
8	0xbed5a908	-0.41730523
9	0xbe7cc9f6	-0.24686417
10	0xbea2c919	-0.3179405
11	0x3e610a6d	0.21976633
12	0x3f22616e	0.63429916
13	0x3e3da36c	0.18519372
14	0xbde5dbc0	-0.112235546
15	0xbf3b10f4	-0.73072743

bias f4 [4]
0	0xbe6944af	-0.22780107
1	0xbc8e5b86	-0.017377626
2	0xbe7d8913	-0.24759321
3	0xbda145b5	-0.07874624
